Forecasting for research All file/my_model_weights.pth (torch, 70679 bytes, 5 tensors)

rnn.weight_ih_l0 f4 [256, 1]
0	0xbdb51d0d	-0.088434316
1	0x3d908212	0.07056059
2	0xbd8ccd16	-0.068750545
3	0x3dbca570	0.09211242
4	0x3dba72ef	0.09103953
5	0xbc560eaf	-0.013065024
6	0xbbfe760f	-0.0077655385
7	0x3a6fcf56	0.0009148022
8	0xbd855266	-0.06509857
9	0xbc8e1964	-0.017346092
10	0x3df8c3da	0.12146731
11	0x3d9029d8	0.07039231
12	0x3e0c744e	0.13716242
13	0x3d3c67a2	0.04599727
14	0xbdae6bda	-0.08516665
15	0xbde1e0e9	-0.11029226
16	0xbd186389	-0.0372043
17	0x3d8b27e7	0.0679472
18	0xbdbedef7	-0.09319871
19	0x3dbf6613	0.09345641
20	0xbdb90873	-0.09034815
21	0x3d92988f	0.071580045
22	0x3d521743	0.051291715
23	0x3d0f6dde	0.035016887
24	0x3d9de26a	0.07709201
25	0x3d68f7c8	0.056876928
26	0xbce57cff	-0.028013704
27	0xbd648db8	-0.055799216
28	0xbda4def6	-0.08050339
29	0xbdb798f1	-0.08964718
30	0x3bed2989	0.0072376174
31	0x3cf4f04f	0.029899744
32	0xbdb2d445	-0.087318935
33	0xbca873f3	-0.020563101
34	0x3df12cac	0.117760986
35	0xbdb7e459	-0.08979101
36	0x3d7efc3f	0.06225228
37	0xbde998fb	-0.11406132
38	0x3d2247c2	0.039619215
39	0x3da22aa2	0.07918288
40	0xba0df2fe	-0.0005414932
41	0x3e096142	0.13416007
42	0xbda650ca	-0.08120878
43	0xbd2636a4	-0.040579453
44	0x3e01d9a7	0.12680684
45	0x3d4dfd1d	0.050290216
46	0x3cfa7332	0.030572508
47	0xbd8fc563	-0.070200704
48	0x3d957a45	0.07298712
49	0xbe1c5879	-0.15268125
50	0x3dac0281	0.08398915
51	0x3dbf3bce	0.09337579
52	0xbdd602ae	-0.1044973
53	0xbd88d872	-0.06681909
54	0x3bc88550	0.0061194077
55	0x3d2508b3	0.0402915
56	0x3dbc3dc0	0.091914654
57	0xbdb00ef0	-0.08596599
58	0xbd8a577d	-0.06754968
59	0x3dba5d8d	0.09099875
60	0xbd5444e8	-0.051823527
61	0x3d09f798	0.03368339
62	0xbe03ff87	-0.12890445
63	0x3cb627fe	0.022235867
64	0xbd3369bf	-0.04380202
65	0xbd802255	-0.06256548
66	0xbdcb59e1	-0.099292524
67	0xbd97facf	-0.07420885
68	0x3d290b8e	0.041270785
69	0xbde687b3	-0.11256351
70	0x3be66af7	0.007031794
71	0x3b9c3771	0.0047673513
72	0xbdd9a901	-0.10627938
73	0x3dbbcb70	0.09169662
74	0x3d137701	0.036002163
75	0xbd0b9e2d	-0.034086395
76	0xbd48731a	-0.048937894
77	0x3db31c9c	0.08745691
78	0xbc451043	-0.012027803
79	0xbd649665	-0.05580749
80	0xbdca8497	-0.09888571
81	0x3d025ee3	0.031828772
82	0x3dba1706	0.090864226
83	0xbd76cd3e	-0.060254328
84	0x3cba6270	0.022752017
85	0x3dc28f72	0.09500016
86	0xbdb1d346	-0.08682875
87	0x3c9d3395	0.019189635
88	0x3d7a1427	0.061054375
89	0xbd4122d8	-0.04715237
90	0x3d0db197	0.03459319
91	0x3de6edb3	0.11275806
92	0xbd8ef83f	-0.06980943
93	0xbd9c327c	-0.07626817
94	0x3d94d460	0.0726707
95	0x3de9beb3	0.11413326
96	0x3d99e936	0.075151846
97	0x3d736b1c	0.05942832
98	0xbd8bf392	-0.06833567
99	0x3b465d48	0.0030268002
100	0xbd73adfd	-0.0594921
101	0x3dcc55ee	0.09977327
102	0x3da55dab	0.08074506
103	0x3dc36117	0.09540003
104	0x3d5621b1	0.052278224
105	0xb8b88946	-8.799373e-05
106	0x3d0f72f7	0.03502175
107	0xbe09b1be	-0.1344671
108	0x3c81ac56	0.015829246
109	0xbd499afc	-0.04922007
110	0xbd0b4f63	-0.034011256
111	0xbd422b4c	-0.047404572
112	0x3dafd839	0.08586163
113	0xbe1a29e7	-0.15055047
114	0x3da4edc7	0.08053165
115	0xbcb27b46	-0.021787297
116	0x3df1a098	0.11798209
117	0x3c824c58	0.015905544
118	0x3dc9936b	0.09842571
119	0xbd170e16	-0.036878668
120	0x3c1e0d05	0.009646659
121	0xbd38ad54	-0.045087174
122	0xbd94125a	-0.07230063
123	0x3dd6a480	0.10480595
124	0xbdb8aebf	-0.09017705
125	0x3d0e0978	0.034677
126	0xbdd27cad	-0.10277686
127	0x3c0b1172	0.008488046
128	0xbd0b220e	-0.033968024
129	0xbde6a16c	-0.112612575
130	0x3d2fd83a	0.04293082
131	0xbab4f381	-0.001380548
132	0xbd9db061	-0.07699657
133	0x3cd22afb	0.02565526
134	0x3d507300	0.050890923
135	0x3d729ed9	0.05923352
136	0x3d5f7495	0.05455454
137	0x3e0067df	0.12539624
138	0xbdc2bd4f	-0.09508764
139	0x3cf33bc2	0.02969158
140	0xbe00e8fe	-0.1258888
141	0xbd4e6aaa	-0.05039469
142	0x3d9ec14a	0.07751711
143	0x3dd45198	0.10367125
144	0xbc966796	-0.01835994
145	0x3d5ea19a	0.054353334
146	0xbddb3c01	-0.10704804
147	0xbdb97780	-0.09055996
148	0x3d51b3b8	0.051196784
149	0xbd49a0e1	-0.04922569
150	0x3d87d962	0.06633259
151	0x3d6e851c	0.05823241
152	0xbd4323e0	-0.047641635
153	0xbdff4295	-0.124638714
154	0xbde52858	-0.111893356
155	0x3d8e877f	0.069594376
156	0x3d64d12a	0.055863537
157	0xbddb5995	-0.10710446
158	0xbdb36ffa	-0.08761592
159	0xbdbeba84	-0.09312919
160	0xbd74ee21	-0.05979741
161	0xbdcef05e	-0.1010444
162	0x3bb6a880	0.005574286
163	0x3c770b67	0.015078402
164	0xbb162d8e	-0.0022915336
165	0x3d83414c	0.06408939
166	0xbdb8e559	-0.090281196
167	0xbd5335d6	-0.051565014
168	0xbcbb974a	-0.022899289
169	0x3dc29eb7	0.09502929
170	0x3d883f09	0.06652648
171	0x3db545cb	0.088512026
172	0xbdd743cc	-0.10510978
173	0x3e0f3159	0.13983668
174	0xbdd58c29	-0.10427124
175	0x3cab1f2d	0.02088889
176	0x3d9da053	0.07696595
177	0x3b7a4db6	0.0038193292
178	0xbc869aad	-0.016431177
179	0x3d6b6cd1	0.057476822
180	0x3dfa37ee	0.12217699
181	0x3d9db79e	0.07701038
182	0xbc9b7f71	-0.018981667
183	0xbd119099	-0.03553829
184	0xbd2e1b27	-0.042506363
185	0x3d9f323d	0.07773254
186	0xbc6c0596	-0.014405629
187	0x3da55d22	0.08074404
188	0x3d8ff1f8	0.07028574
189	0xbd9785c3	-0.0739856
190	0xbbcf9756	-0.0063351793
191	0xbe043e7c	-0.12914461
192	0x3de91dc6	0.11382632
193	0xbdb1a1dc	-0.0867345
194	0xbde406d0	-0.11134112
195	0xbcd28124	-0.025696345
196	0xbcccf7ab	-0.025020441
197	0x3ae501dc	0.0017471868
198	0x3d81487a	0.06312652
199	0x3d897683	0.067120574
200	0xbd8d1b81	-0.068900116
201	0xbdb63668	-0.08897096
202	0xbb889473	-0.004168087
203	0xbd8a951e	-0.06766723
204	0xbe04ca8a	-0.12967888
205	0xbe065947	-0.13119994
206	0x3e034b16	0.12821612
207	0xbd21bfa2	-0.039489396
208	0xbdbb4ee7	-0.09145909
209	0x3ba23311	0.0049499352
210	0x3d59066d	0.052984644
211	0x3d1ce66f	0.038305696
212	0xbdd2c9ce	-0.102923974
213	0x3d6669f8	0.056253403
214	0xbce768e7	-0.028248264
215	0x3d4f3d40	0.050595522
216	0xbda5760d	-0.08079157
217	0x3bb21c91	0.0054355343
218	0xbc1e501e	-0.009662656
219	0xbcc5fe1e	-0.024169024
220	0xbdcdf2f3	-0.100561045
221	0xbc7b9ed8	-0.0153576955
222	0xbbcee65f	-0.0063140835
223	0xbdaf8d45	-0.08571867
224	0xbd7ec4cc	-0.0621994
225	0x3d830749	0.06397874
226	0xbd97e827	-0.074173264
227	0xbd498c84	-0.04920627
228	0xbd864bb3	-0.06557407
229	0x3dc587e2	0.09645058
230	0x3daa5d80	0.08318615
231	0xbdb290de	-0.087190375
232	0x3d82a917	0.063799076
233	0x3d0af22a	0.033922352
234	0xbd77fa33	-0.060541343
235	0xbad4b078	-0.0016226908
236	0x3d27e948	0.04099396
237	0x3d79f476	0.06102415
238	0x3d9861c6	0.07440524
239	0xbdae30dc	-0.08505413
240	0x3dd29c18	0.10283679
241	0xbe009222	-0.12555745
242	0x3dc70dfd	0.09719465
243	0x3db0f2e4	0.08640078
244	0xbd67fabd	-0.056635607
245	0xbd7912f0	-0.060809076
246	0x3d8c15ca	0.068400934
247	0x3df56c98	0.11983603
248	0x3d39ffd3	0.04540999
249	0xbdd02c8f	-0.10164749
250	0xbd9756df	-0.07389616
251	0x3dc7a7c3	0.09748795
252	0x3d23a743	0.039954435
253	0x3da13a33	0.07872429
254	0xbd5d36b3	-0.054007243
255	0xbdf3b63a	-0.11899991

rnn.weight_hh_l0 f4 [256, 64]
0	0xbbde9bcb	-0.0067934743
1	0xbdb74c6f	-0.089501254
2	0xbcb396db	-0.02192252
3	0xbd9fefe0	-0.078094244
4	0xbd8c3f1b	-0.06847974
5	0xbd7ee8bf	-0.062233683
6	0xbd0bced3	-0.03413279
7	0x3d91ba01	0.071155556
8	0xbdeaf313	-0.11472144
9	0x3d6f8023	0.05847181
10	0x3d7e3139	0.06205866
11	0x3d517f3d	0.051146735
12	0x3d313545	0.043263692
13	0x3d5b7b24	0.053584233
14	0x3dfd2edf	0.123624556
15	0x3deec7a7	0.116591744
16	0x3dd149c1	0.102191456
17	0x3d108566	0.03528347
18	0x3dc50b94	0.09621349
19	0xbddb35f5	-0.10703651
20	0xbd883d58	-0.066523254
21	0xbd366cc6	-0.04453733
22	0xbc8ead40	-0.017416596
23	0xbd47c52c	-0.048772022
24	0x3d0471cb	0.032335084
25	0xbda909f6	-0.08253853
26	0xbdb7e42e	-0.08979069
27	0xbd728399	-0.059207533
28	0xbe007032	-0.12542799
29	0xbd155fa4	-0.036468163
30	0xbd99ca8e	-0.07509337
31	0xbd2a5a92	-0.04159028
32	0x3d87e5f5	0.06635658
33	0x3d3951ba	0.045243956
34	0xbcd9bf16	-0.026580375
35	0xbdeb1b1a	-0.114797786
36	0xbda00e00	-0.0781517
37	0xbddcc4c7	-0.1077972
38	0x3d2b8d3a	0.04188273
39	0xbdb85367	-0.09000283
40	0xbd35a7b7	-0.0443494
41	0xbcb7b45a	-0.022424866
42	0xbdb133cd	-0.08652458
43	0xbe09d107	-0.13458644
44	0xb9ae1894	-0.00033206178
45	0x3c02bd3f	0.00797969
46	0x3d515f81	0.05111647
47	0xbdb1f8c4	-0.086900264
48	0x3d51413f	0.051087614
49	0x3d3da330	0.046298206
50	0x3be8a080	0.007099211
51	0xbc4adeb2	-0.012382196
52	0x3a29f20a	0.0006482905
53	0xbd3ef4c3	-0.04662014
54	0x3d18122b	0.0371267
55	0xbdb7e427	-0.089790635
56	0xbdf694b9	-0.12040085
57	0xbdc93ec6	-0.09826426
58	0x3dbff2b1	0.093724616
59	0x3e060d3b	0.13090985
60	0x3db365cc	0.087596506
61	0xbbc596e6	-0.0060299514
62	0x3cf8f86f	0.0303919
63	0xbdf38d12	-0.118921414
64	0x3ceed9bb	0.029156556
65	0xbdb7332f	-0.08945309
66	0xbc14cc37	-0.009081892
67	0xbd88f56d	-0.06687436
68	0xbca5b62c	-0.020228468
69	0xbd426512	-0.04745967
70	0x3d1be43b	0.038059454
71	0x3d9efb83	0.07762816
72	0xbdce7a1d	-0.10081885
73	0xbe06593b	-0.13119976
74	0xbdd2b32d	-0.10288081
75	0x3cd26523	0.025682991
76	0x3d1e95f6	0.038717233
77	0xbd41f894	-0.047356203
78	0x3c5da66d	0.0135284485
79	0xbd0d6b76	-0.03452631
80	0x3dec3bd4	0.11534849
81	0x3d7e6359	0.062106464
82	0x3d6212f4	0.055193856
83	0xbd1a548f	-0.037678298
84	0x3da899d4	0.082324654
85	0x3de8301a	0.113373
86	0xbd8e02d2	-0.06934132
87	0x3df32c15	0.11873642
88	0x3bcd1529	0.006258626
89	0xbca9c0a9	-0.02072175
90	0xbd865bbb	-0.06560465
91	0x3dca8cb4	0.09890118
92	0xbdea836d	-0.11450849
93	0xbdb445cd	-0.08802376
94	0x3cd90d83	0.0264957
95	0x3db4ba68	0.08824617
96	0x3dadf3e2	0.084937826
97	0xbc13c381	-0.00901878
98	0xbdc48082	-0.095948234
99	0x3d9a0dd2	0.07522167
100	0xbdacf5fc	-0.08445355
101	0x3d9e1976	0.077197
102	0x3cc49909	0.023998754
103	0xbbfe3895	-0.00775821
104	0xbdafe39b	-0.08588334
105	0xbdcf0a6e	-0.10109411
106	0x3d50bbf2	0.05096049
107	0x3d9e9770	0.07743728
108	0x3d9645c9	0.07337529
109	0xbdcc318c	-0.09970388
110	0x3a587828	0.0008257651
111	0x3da5eeb8	0.081021726
112	0xbce20237	-0.027588947
113	0x3cc4f9e1	0.024044933
114	0xbcc974c6	-0.024591815
115	0x3dac114c	0.084017366
116	0x3dc981ac	0.09839186
117	0x3dd5f864	0.104477674
118	0x3dc89e94	0.097958714
119	0xbdc2f963	-0.09520223
120	0xbd82aad3	-0.063802384
121	0xbd96df22	-0.07366778
122	0xbdfb939a	-0.12284012
123	0x3e031669	0.12801518
124	0x3dc41a49	0.09575326
125	0xbc085706	-0.008321529
126	0xbd689329	-0.056780968
127	0x3adb6c12	0.0016740581
128	0xbd006fa7	-0.03135648
129	0x3c40dcfb	0.011771436
130	0xbd49bb06	-0.049250625
131	0xbdc94fe0	-0.09829688
132	0x3cad35c3	0.0211438
133	0xbdbc7d36	-0.092035696
134	0x3d0e186c	0.03469126
135	0xbde6d45c	-0.11270973
136	0xbda2b398	-0.07944411
137	0xbd876094	-0.06610218
138	0xbdd02a75	-0.10164348
139	0x3c440278	0.011963479
140	0xbcf50499	-0.029909419
141	0xbd4ebf20	-0.05047524
142	0x3d3e8b25	0.046519417
143	0xbd5d4b7e	-0.054027073
144	0xbd2a34e1	-0.041554336
145	0x3ca07a25	0.019589493
146	0x3d54a3ed	0.051914144
147	0x3bb41abd	0.0054963515
148	0x3d5d0af1	0.053965513
149	0xbd17677d	-0.03696393
150	0x3de88a78	0.11354536
151	0x3daaf549	0.08347566
152	0x3b43ab19	0.002985662
153	0x3dc9848c	0.098397344
154	0x3d6cd03a	0.057815768
155	0x3a0cb128	0.00053669745
156	0x3c4db985	0.012556438
157	0x3cfcbc7f	0.0308516
158	0x3de45e54	0.11150804
159	0x3dc219e3	0.09477594
160	0x3ce013b9	0.027353154
161	0x3d1b0422	0.03784574
162	0xbd5803b9	-0.052737925
163	0x3dbb9be6	0.09160595
164	0xbdaa7faa	-0.08325131
165	0x3d8f72d7	0.07004326
166	0x3cc40e01	0.023932459
167	0xbdc71ad5	-0.09721915
168	0x3cd6a0e0	0.026199758
169	0xbdfbb382	-0.12290098
170	0xbd4fb4fd	-0.050709713
171	0xbdc35aa6	-0.09538774
172	0x3c5b17e7	0.013372398
173	0xbcb0efb5	-0.021598676
174	0xbdc9a686	-0.09846215
175	0xbdcf245b	-0.10114356
176	0xbb2d25f3	-0.0026420325
177	0xbd2d1e31	-0.04226512
178	0x3e01ced2	0.12676552
179	0xbd1a85cd	-0.03772526
180	0xbd188948	-0.037240297
181	0x3da71358	0.081579864
182	0x3c65c36c	0.014023643
183	0xbd1357f7	-0.03597256
184	0x3d67ec29	0.056621704
185	0xbdee8297	-0.11646002
186	0x3df235c9	0.11826665
187	0xbdabb871	-0.08384789
188	0x3bf50cdc	0.0074783396
189	0x3d7a4d1c	0.061108693
190	0xbdb6ff79	-0.08935446
191	0xbd0f6f7b	-0.035018425
192	0x3e018dcb	0.12651746
193	0x3dbdbdc0	0.092647076
194	0x3de1ffc1	0.11035109
195	0x3ce18fc3	0.027534371
196	0x3d3e3c1d	0.046444047
197	0xbd4d01a9	-0.05005041
198	0x3d7bd243	0.061479818
199	0xbd823337	-0.06357425
200	0xbd4fdc5e	-0.050747268
201	0xbd927f6d	-0.07153211
202	0xbd3e9760	-0.04653108
203	0xbcfb23c0	-0.030656695
204	0x3cd1cb51	0.025609644
205	0xbdb3b0eb	-0.08773979
206	0x3c741a44	0.01489884
207	0xbd784c62	-0.06061972
208	0x3df80b9e	0.12111591
209	0xbd89990d	-0.06718645
210	0x3d823162	0.06357075
211	0xbdf25a75	-0.118336596
212	0x3cfc85f0	0.030825585
213	0xbcff45b4	-0.031161167
214	0x3c86ffc5	0.016479382
215	0xbdcb53bd	-0.09928081
216	0x3d6d3070	0.05790752
217	0x3dc49455	0.095986046
218	0x3ddf1988	0.108935416
219	0x3d126dfb	0.035749417
220	0xbdc967ad	-0.09834228
221	0xbc582269	-0.013191798
222	0xbd2edc76	-0.042690717
223	0xbd959582	-0.07303907
224	0xbd27e5b1	-0.040990535
225	0x3df8b47a	0.12143798
226	0xbd851a44	-0.064991504
227	0x3baffeb6	0.00537094
228	0x3c97cfc2	0.018531684
229	0x3da968e0	0.082719564
230	0x3df27bdd	0.11840031
231	0x3d2cbe83	0.042173874
232	0x3db341e4	0.08752802
233	0xbd00a028	-0.031402737
234	0xbbac6492	-0.0052610124
235	0xbc53aed2	-0.012920098
236	0xbd3d5b8c	-0.046229884
237	0xbd7148d4	-0.058907345
238	0x3d77ac2b	0.060466927
239	0x3cd31785	0.02576805
240	0x3d8e072f	0.06934964
241	0xbdc89927	-0.097948365
242	0xbbfd71ed	-0.0077345283
243	0xbd915d4c	-0.07097873
244	0x3bba26e2	0.0056809047
245	0x3d192289	0.03738645
246	0xbda97883	-0.08274939
247	0xbd5ac7ed	-0.05341332
248	0x3e10a482	0.14125255
249	0x3de3b144	0.11117795
250	0x3dd4da2a	0.10393174
251	0xbdeb11f3	-0.11478033
252	0x3dbffff5	0.09374992
253	0xbdc5f193	-0.09665217
254	0x3dbf1400	0.093299866
255	0x3d695f81	0.056975845

rnn.bias_ih_l0 f4 [256]
0	0x3a7297f0	0.0009254208
1	0xbd8103c4	-0.06299546
2	0xbd0c716e	-0.034287862
3	0x3da9dd78	0.08294195
4	0x3dc42581	0.09577466
5	0xbde9b594	-0.114115864
6	0xbde57187	-0.11203294
7	0x3db36412	0.08759321
8	0x3c6d6a8d	0.014490736
9	0x3b156aa3	0.0022799156
10	0xbdc59192	-0.09646906
11	0xbaf3a88f	-0.0018589663
12	0x3d82cbde	0.06386541
13	0xbcf243ab	-0.029573282
14	0xbdf81c11	-0.12114728
15	0x3c4f83d3	0.012665707
16	0xbcf0c021	-0.02938849
17	0x3d2179fe	0.03942298
18	0x3dbda80a	0.092605665
19	0xbc4fb1d6	-0.012676677
20	0xbd9e4c1a	-0.07729359
21	0xbc7d3549	-0.015454599
22	0x3c421fe5	0.011848425
23	0xbda65b8d	-0.08122931
24	0x3cd722d3	0.026261723
25	0xbe034d86	-0.12822542
26	0x3d5a140c	0.053241774
27	0xbe05c414	-0.13063079
28	0xbbf58e20	-0.0074937493
29	0x3e0a7cd2	0.13524178
30	0x3d864102	0.06555368
31	0x3ddb73f7	0.10715478
32	0x3e140046	0.1445323
33	0x3db8bf2d	0.09020839
34	0x3d3f7878	0.046745747
35	0x3df8588b	0.12126263
36	0x3d8dae9e	0.06918071
37	0xbdb6e2e3	-0.08929994
38	0x3d83f74c	0.064436525
39	0x3d535ffa	0.051605202
40	0xbc60a5d5	-0.013711412
41	0xbd20c6f5	-0.03925224
42	0xbe09972d	-0.13436575
43	0xbd8dd2d4	-0.06924978
44	0xbded8f75	-0.11599628
45	0xbe1034e2	-0.14082673
46	0x3db36c58	0.08760899
47	0x3d483b9e	0.04888498
48	0x3d867e17	0.065670185
49	0xbc2eed0b	-0.010676633
50	0xbe0f6d17	-0.14006458
51	0x3e08f17e	0.13373372
52	0xbd1ba800	-0.038002014
53	0x3cc14990	0.023594648
54	0xbe0a2a69	-0.1349274
55	0xbddde1ba	-0.108340696
56	0xbc116f2f	-0.008876606
57	0x3d58cbf7	0.05292889
58	0xbd0d06c9	-0.0344303
59	0xbcd57521	-0.026056828
60	0x3cb3402b	0.021881184
61	0x3d388b44	0.04505469
62	0x3dbd538a	0.092444494
63	0x3c54b4bf	0.012982546
64	0xbd12be1e	-0.03582584
65	0x3cff740c	0.031183265
66	0xbde16ab9	-0.11006684
67	0x3cdda09e	0.027054127
68	0x3d3e9b78	0.046534985
69	0xbdfa8de3	-0.12234094
70	0xbcd676c7	-0.026179684
71	0xbb612878	-0.0034356397
72	0xbd8382e9	-0.064214535
73	0x3cda1708	0.02662231
74	0x3db36531	0.08759535
75	0xbdcb3293	-0.09921756
76	0x3d824717	0.063612156
77	0x3ddac5ff	0.10682296
78	0x3cc5b5e0	0.024134576
79	0x3d096784	0.033545986
80	0xbc940dcf	-0.01807299
81	0x3e0381e5	0.1284252
82	0xbd904e05	-0.07046131
83	0x3e0d78a2	0.13815549
84	0x3dd8f606	0.105938
85	0x3dcef566	0.101054
86	0xbd35d4eb	-0.044392508
87	0x3d63c20f	0.05560499
88	0x3dc0b119	0.09408779
89	0x3d2cc6e1	0.042181853
90	0xbd7ac93d	-0.061227072
91	0xbb91858b	-0.0044409684
92	0x3b9692f8	0.0045951568
93	0x3db20d2e	0.0869392
94	0xbc4a4ab7	-0.012346915
95	0x3d8de36c	0.06928143
96	0x3d5f8d00	0.054577827
97	0x3da88273	0.08228006
98	0x3d772b2d	0.06034391
99	0xbda7ea8b	-0.081990324
100	0x3c47123a	0.012150342
101	0xbd854ef8	-0.06509203
102	0xbd4ce49a	-0.0500227
103	0x3d8b6c46	0.06807761
104	0x3d6f8fad	0.05848663
105	0x3d216c84	0.03941013
106	0x3d40d540	0.04707837
107	0xbdd1b49a	-0.10239525
108	0x3cc4ef50	0.024039894
109	0x3cb4d2f4	0.022073247
110	0xbce80415	-0.028322259
111	0xbdd82809	-0.10554511
112	0x3d63aef5	0.055586774
113	0x3b781ad9	0.00378578
114	0xbd919dfe	-0.07110213
115	0xbdc69653	-0.09696641
116	0xbd05d708	-0.032675773
117	0xbdbfb456	-0.09360568
118	0xbd828cd2	-0.063745156
119	0x3dad2506	0.08454327
120	0xbda81bac	-0.08208403
121	0x3cba5145	0.02274383
122	0xbdbbd716	-0.09171884
123	0x3c29f0d7	0.010372362
124	0xbd7ddb06	-0.061976455
125	0xbdb6eff5	-0.08932487
126	0xbe003e64	-0.125238
127	0xbc29c0b4	-0.010360885
128	0x3d59b113	0.053147387
129	0xbd7d36cf	-0.061819848
130	0x3d969355	0.0735232
131	0xbce60f0f	-0.028083352
132	0x3d70701f	0.058700677
133	0x3dbd8267	0.09253388
134	0xbbe97bd8	-0.007125359
135	0xbb36773b	-0.0027842063
136	0x3d200edb	0.039076667
137	0xbb00572a	-0.0019583204
138	0x3e0392d2	0.12848976
139	0x3e0aafc4	0.13543612
140	0xbe047caf	-0.12938188
141	0xbddc803e	-0.10766648
142	0x3db7eced	0.08980737
143	0xbc07f718	-0.008298658
144	0xbcbeb7f6	-0.023281079
145	0xbd857780	-0.065169334
146	0xbda86ff0	-0.082244754
147	0x3db76f7b	0.0895681
148	0xbdd20bc6	-0.10256152
149	0x3dac4163	0.08410909
150	0xbda93c62	-0.0826347
151	0x3e12774b	0.14303319
152	0xbd3f2884	-0.046669498
153	0x3d64e8f7	0.055886235
154	0x3c31c5ba	0.010850364
155	0xbdb96df6	-0.090541765
156	0xbd194a99	-0.037424657
157	0x3c8b8d95	0.017035285
158	0xbd856a7b	-0.0651445
159	0x3e099a44	0.13437754
160	0x3dc2355c	0.09482834
161	0x3db0f1c1	0.08639861
162	0x3c42ab57	0.011881671
163	0x3d96cf97	0.07363813
164	0xbcdedb26	-0.027204107
165	0x3e0e83b3	0.13917427
166	0xbb601090	-0.003418956
167	0x3d648c9a	0.05579815
168	0x3dad5c99	0.08464927
169	0x3db340c7	0.0875259
170	0x3d817121	0.06320406
171	0xbd7d7caf	-0.061886486
172	0xbd6a6655	-0.057226498
173	0xbd02effc	-0.03196715
174	0x3b51b962	0.0032001366
175	0xbda33943	-0.07969906
176	0x3e0e80af	0.13916276
177	0xbd6948e3	-0.056954276
178	0x3d7b44a0	0.061344743
179	0x3ddf3b50	0.10899985
180	0x3e10d794	0.14144737
181	0x3d9df0c6	0.077119395
182	0x3b8153cf	0.0039467583
183	0xbd6ec6d5	-0.05829509
184	0x3bd14a7e	0.006387054
185	0xbd95fa5a	-0.073231414
186	0x3ca9ac43	0.020712024
187	0x3d917594	0.071025044
188	0xbd23b788	-0.03996995
189	0xbcd0d285	-0.025491009
190	0x3dbd87dc	0.09254429
191	0xbcee63b8	-0.029100284
192	0xbd8ca909	-0.068681784
193	0xbda66f03	-0.081266426
194	0xbd4f4d58	-0.05061087
195	0xbba4032d	-0.0050052614
196	0xbd1c37e6	-0.038139246
197	0xbd38837d	-0.045047272
198	0xbc0e2592	-0.00867595
199	0x3d844f04	0.064603835
200	0xbacb7bce	-0.0015524568
201	0xbd75a63b	-0.059972983
202	0x3d90f298	0.07077521
203	0x3d3c6c5b	0.046001773
204	0xbbe6bcbc	-0.007041542
205	0x3db2bdd4	0.08727613
206	0x3d99ffc9	0.0751949
207	0xbd64e77d	-0.055884827
208	0xbd780a7d	-0.060556877
209	0xbdb4c05a	-0.08825751
210	0x3d8cf9a6	0.06883554
211	0xbd51f2b5	-0.051256854
212	0x3bbf3685	0.0058353567
213	0xbd2a7f9a	-0.041625597
214	0xbcea0323	-0.028565949
215	0x3d815a0f	0.063160054
216	0xbd49619f	-0.049165364
217	0xbd1653b4	-0.03670092
218	0xbdeaad8f	-0.11458885
219	0x3d663bdf	0.05620944
220	0xbda07a0e	-0.0783578
221	0x3db9e6eb	0.09077247
222	0x3da91388	0.082556784
223	0x3c3964df	0.011315553
224	0xbd8e5e79	-0.06951613
225	0xbdbace85	-0.09121422
226	0xbdd5e9db	-0.10444995
227	0xbcda053a	-0.02661382
228	0xbc9f426e	-0.019440856
229	0x3d235d5a	0.03988395
230	0xbb08991b	-0.002084321
231	0xbdd1b78f	-0.10240089
232	0xbaa07238	-0.0012241071
233	0x3dee61cf	0.11639749
234	0xbd019dc1	-0.031644586
235	0x3d4de62e	0.050268345
236	0xbe01fcf5	-0.12694152
237	0x3c6e25cf	0.014535381
238	0x3d60209f	0.05471861
239	0xbcf111ab	-0.02942737
240	0xbcf08c66	-0.029363822
241	0xbd46daba	-0.048548438
242	0xbe13a440	-0.14418125
243	0x3dc1969d	0.09452555
244	0xbd671926	-0.056420468
245	0x3c862f52	0.016379986
246	0xbdf4722c	-0.11935839
247	0xbb3bf33e	-0.002867892
248	0xbd749dd9	-0.059720848
249	0xbdaa417b	-0.08313271
250	0x3d9b1ed2	0.07574238
251	0x3c9cf452	0.01915947
252	0xbdf540ea	-0.11975272
253	0x3dd12044	0.10211232
254	0x3dae743a	0.08518262
255	0xbdc7b125	-0.097505845

rnn.bias_hh_l0 f4 [256]
0	0xbc4d45be	-0.012528835
1	0x3d240d75	0.040051896
2	0x3de17eeb	0.11010536
3	0xbc1b8e08	-0.009494312
4	0x3db54e99	0.08852882
5	0xbd2911b4	-0.04127665
6	0xbd3ec6f5	-0.04657646
7	0xbcb1d76d	-0.021709168
8	0x3d10bb77	0.03533503
9	0x3dad209b	0.084534846
10	0xbd8afded	-0.06786714
11	0xbcd916ea	-0.026500184
12	0x3e104ba4	0.14091355
13	0xbdd636b0	-0.104596496
14	0xbce56ee0	-0.02800697
15	0xbe0d865d	-0.13820787
16	0xbdb64f10	-0.08901799
17	0xbc03efd4	-0.008052785
18	0x3e0de4e9	0.13856854
19	0x3d016bc9	0.031596933
20	0xbdb7add8	-0.08968705
21	0xbdbf4dec	-0.09341034
22	0xbd4b3800	-0.049613953
23	0x3da6184b	0.08110102
24	0x3d00a2a2	0.0314051
25	0xbdd5b75b	-0.10435363
26	0xbb565f00	-0.0032710433
27	0xbd1ea90a	-0.038735427
28	0xbd46e32d	-0.048556495
29	0xbd51c59e	-0.051213853
30	0x3d00974c	0.031394288
31	0x3ddcc54d	0.1077982
32	0x3df058ad	0.117356636
33	0x3dfc9f21	0.12335039
34	0x3d72cd3c	0.059277758
35	0x3d5f7d5f	0.054562923
36	0xbd1fe127	-0.03903308
37	0x3c19b048	0.009380408
38	0x3d76d3f0	0.060260713
39	0xbd993e2d	-0.07482562
40	0xbdf76091	-0.120789655
41	0xbd716a10	-0.05893904
42	0xbdbf7afe	-0.09349631
43	0x3dba14a3	0.090859674
44	0xbde72fa5	-0.11288384
45	0xbe0e55d9	-0.13899936
46	0xbd0f9b6b	-0.035060328
47	0xbe088353	-0.13331346
48	0x3c02e996	0.007990262
49	0x3cc1bd45	0.023649821
50	0x3d91fcce	0.07128297
51	0x3e0e9b73	0.13926487
52	0xbd74cd35	-0.059766013
53	0x3dabb62c	0.08384356
54	0xbc548e6b	-0.012973408
55	0x3a2ec2ce	0.00066666014
56	0x3ccdd8a9	0.025127726
57	0xbdb9e45b	-0.090767585
58	0x3c982c46	0.018575799
59	0x3ddaeb62	0.10689427
60	0x3cb68bfb	0.022283545
61	0xbd296593	-0.041356634
62	0x3db5273a	0.088453725
63	0x3d3973ea	0.04527656
64	0x3db84b54	0.08998743
65	0xbc2427fa	-0.010019297
66	0xbd8f5c9f	-0.07000088
67	0x3dc5837e	0.09644221
68	0x3d81edd1	0.06344188
69	0xbde2d0b3	-0.110749625
70	0xbdad51a0	-0.08462834
71	0x3cfb2fc0	0.030662417
72	0xbce5e2fb	-0.028062334
73	0xbd35c344	-0.044375673
74	0x3daf3785	0.085555114
75	0xbd3dace3	-0.046307456
76	0x3d5ec553	0.0543874
77	0x3d17446e	0.036930494
78	0xbd932aa8	-0.071858704
79	0xbd84bdf9	-0.06481547
80	0xbdc8707e	-0.09787081
81	0xbdd880eb	-0.10571464
82	0x3dff2445	0.1245809
83	0x3dafa7b7	0.08576911
84	0xbd4d7293	-0.050158095
85	0x3d973a80	0.07384205
86	0x3d8aab5c	0.067709655
87	0x3dc857b0	0.0978235
88	0xbd92747b	-0.07151123
89	0x3cc848c1	0.024448754
90	0x3d8a7e9b	0.06762429
91	0xbd861f8c	-0.06548986
92	0x3d88aeeb	0.06673988
93	0x3e05e8e4	0.13077122
94	0xbcc84f4a	-0.02445187
95	0x3d8e4d37	0.06948321
96	0xbd94fb8b	-0.072745405
97	0xbda5acc1	-0.08089591
98	0x3dd9ab53	0.106283806
99	0x3c7baf89	0.015361675
100	0xbdc3fac3	-0.095693134
101	0xbdbba62c	-0.09162554
102	0x3db18f82	0.0866995
103	0xbd77d0b9	-0.060501788
104	0x3de11bac	0.10991606
105	0x3da99a9a	0.08281441
106	0xbd8b6874	-0.06807032
107	0x3d45a47a	0.04825256
108	0x3cebe974	0.028797843
109	0xbdab3425	-0.08359555
110	0xbd1d862d	-0.038458038
111	0xbd479c38	-0.048732966
112	0x3d469861	0.048485164
113	0xbd2086a7	-0.039190914
114	0x3dd42530	0.103586555
115	0x3df09e6d	0.11748967
116	0x3d909d5f	0.07061266
117	0x3da8d288	0.08243281
118	0xbda74f43	-0.08169415
119	0x3c7b8e2e	0.0153537225
120	0xbdcc6a58	-0.09981221
121	0x3dd3e7b4	0.10346928
122	0x3cd312e7	0.02576585
123	0x3d1ae68b	0.03781752
124	0xbdc70508	-0.097177565
125	0xbbee5d7f	-0.007274329
126	0xbdf0c0a9	-0.11755497
127	0xbc980546	-0.018557202
128	0xbd8dd97d	-0.06926248
129	0x3d8c6c2d	0.068565704
130	0xbdd5790d	-0.10423479
131	0x3c665b11	0.014059798
132	0xbe0f4379	-0.13990583
133	0x3ceac0f1	0.028656455
134	0xbd6b8aee	-0.05750554
135	0xbd980168	-0.07422143
136	0xbde2ea9a	-0.11079903
137	0xbdb0bef4	-0.086301714
138	0x3dd40af7	0.10353654
139	0xbd2b60bd	-0.041840304
140	0xbba9a7d9	-0.0051774797
141	0x3dcb3cf2	0.09923734
142	0xbc21d5e3	-0.009877655
143	0x3d96abab	0.07356962
144	0x3d2c5e7d	0.0420823
145	0x3d9284c8	0.07154232
146	0xbd3c5442	-0.045978792
147	0x3cd601b7	0.026123865
148	0xbd836d3e	-0.06417321
149	0xbdabd345	-0.08389906
150	0xbd11b127	-0.035569336
151	0x3d03dc0a	0.032192267
152	0xbcf4953e	-0.02985632
153	0xbd59a79b	-0.053138357
154	0x3d930a3a	0.07179685
155	0x3d971b31	0.07378233
156	0xbd70391e	-0.05864822
157	0xbd6b033b	-0.057376128
158	0x3e0c6072	0.13708666
159	0xbd636b32	-0.05552215
160	0x3bba730e	0.005689985
161	0xbdf60277	-0.12012189
162	0xbe1321f3	-0.1436842
163	0xbca7ab7f	-0.020467518
164	0x3db89e1e	0.090145335
165	0x3b029194	0.0019923197
166	0x3b7666f6	0.003759799
167	0xbe08d057	-0.13360725
168	0xbcb575b9	-0.022150861
169	0x3cece883	0.028919464
170	0xbbf05094	-0.0073338244
171	0x3d84c401	0.06482697
172	0x3b06854e	0.0020526233
173	0x3d12c5d5	0.0358332
174	0xbdc5b46e	-0.09653555
175	0x3b915222	0.00443484
176	0xbd6e78b2	-0.058220573
177	0x3d72d31e	0.05928337
178	0xbc9fe15c	-0.01951664
179	0x3d3d2ad7	0.046183433
180	0xbd69082c	-0.05689256
181	0x3e0e3ff7	0.13891588
182	0xbc06c2c3	-0.008225146
183	0xbdcfea2c	-0.101520866
184	0x3c52b47a	0.012860412
185	0xb84c27c4	-4.8674425e-05
186	0x3c1437d0	0.00904651
187	0xbdea2ac0	-0.11433935
188	0xbd0da97d	-0.034585465
189	0xbd5f67bd	-0.054542292
190	0xbda7cf3b	-0.08193823
191	0x3c4a8b03	0.012362245
192	0x3da0b120	0.07846284
193	0x3c9f7fdc	0.019470148
194	0x3ceb480e	0.028720882
195	0xbdb06fc1	-0.08615065
196	0x3d42ec6a	0.047588743
197	0x3d8a94ff	0.067667
198	0x3d0372ad	0.032091785
199	0x3d8bae9f	0.06820416
200	0x3dfcb264	0.12338713
201	0x3d20a725	0.0392219
202	0xbbb6bff3	-0.0055770813
203	0xbdbd2e14	-0.09237304
204	0xbc785263	-0.015156361
205	0xbde1f696	-0.11033361
206	0xbdb85c91	-0.09002031
207	0x3bd39bd7	0.0064577865
208	0x3d922380	0.07135677
209	0x3cebb5b6	0.02877317
210	0xbd78228e	-0.06057983
211	0xbdd61a93	-0.104542874
212	0xbcebe02e	-0.02879342
213	0xbcedd2f9	-0.029031264
214	0xbdc050e5	-0.093904294
215	0x3d6e335e	0.058154456
216	0xbd92614d	-0.07147465
217	0x3dcc2b42	0.09969188
218	0xbe084a41	-0.13309576
219	0x3c0e4e14	0.008685607
220	0xbc6de052	-0.014518814
221	0x3e0f3db9	0.13988389
222	0x3dcf28aa	0.10115178
223	0xbd5cbbb5	-0.05388995
224	0xbc8a9bb4	-0.016919948
225	0xbd6a0ce7	-0.05714121
226	0x3d1ae2a7	0.03781381
227	0x3d16a8ee	0.036782198
228	0xbde857a7	-0.11344843
229	0xbda7746c	-0.081765026
230	0xbcdad86b	-0.026714524
231	0xbdbb583f	-0.09147691
232	0xbdd41d1d	-0.103571154
233	0x3d4cf89f	0.05004179
234	0xbd7e9d3a	-0.06216166
235	0xbe0aac03	-0.1354218
236	0xbd8bddf5	-0.06829444
237	0x3d8d47b1	0.0689844
238	0x3cf654e9	0.030069785
239	0x3da349f1	0.079730876
240	0xbdaae679	-0.083447404
241	0xbd5eaffa	-0.054367043
242	0xbdaf31c6	-0.085544154
243	0x3e04cc37	0.12968527
244	0x3e0405bd	0.12892814
245	0x3c6ce610	0.014459148
246	0xbd8e5e05	-0.069515266
247	0x3d53a155	0.05166753
248	0xbde4ecad	-0.11177955
249	0xbd96d5a5	-0.07364968
250	0xbdc51715	-0.09623543
251	0x3e06b4a9	0.13154854
252	0x3d545855	0.051842052
253	0x3cc9fb6e	0.024656024
254	0xbd940a27	-0.07228499
255	0x3d103f37	0.035216536

fc.weight f4 [1, 64]
0	0xbdfa7832	-0.12229957
1	0xbcf851aa	-0.030312378
2	0xbddfd047	-0.109283976
3	0xbda92322	-0.08258654
4	0xbdc3b732	-0.09556426
5	0xbd0d2288	-0.03445676
6	0x3cdc63a9	0.02690299
7	0x3cf0e23b	0.02940475
8	0xbdaf6b2a	-0.08565362
9	0x3d09f3ec	0.033679888
10	0x3de2616c	0.11053738
11	0x3daa4042	0.083130375
12	0xbdc42b3f	-0.09578561
13	0xbd115492	-0.035481043
14	0xbd68fdd5	-0.056882698
15	0xbdb237ee	-0.08702074
16	0x3d65a685	0.05606701
17	0x3db433f1	0.087989695
18	0xbd6048cc	-0.054756925
19	0x3dd804e8	0.10547811
20	0x3db1b9a0	0.08677983
21	0xbcb517f3	-0.022106146
22	0xbd9aafe4	-0.0755308
23	0x3de7405a	0.11291571
24	0xbc911fdb	-0.017715385
25	0xbd03cfca	-0.032180585
26	0xbd2386c9	-0.039923463
27	0x3d20b3a3	0.039233815
28	0x3dc8d9f4	0.09807196
29	0xbd84c13e	-0.064821705
30	0x3c4e9a37	0.01261001
31	0x3e0b9658	0.1363157
32	0x3e146229	0.1449057
33	0xbc50cf32	-0.012744712
34	0xbe125f11	-0.14294077
35	0x3e08fef4	0.13378507
36	0x3dd97b1b	0.10619184
37	0x3d97a0a6	0.07403688
38	0x3bc8089e	0.006104543
39	0xbdb200eb	-0.08691581
40	0x3c7ff98e	0.015623463
41	0x3d0b676f	0.03403419
42	0xbdd7bdd7	-0.10534256
43	0x3dd1af28	0.102384865
44	0x3d33121e	0.04371845
45	0x3d2aafbd	0.041671503
46	0xbd622b37	-0.055216994
47	0x3d9d5e9d	0.07684062
48	0x3e010729	0.12600388
49	0x3cb85940	0.022503495
50	0xbda13f6f	-0.07873427
51	0x3c44b889	0.012006887
52	0x3e00f8af	0.12594865
53	0x3dbcf456	0.09226291
54	0xbd1eaf51	-0.038741414
55	0xbc084084	-0.008316163
56	0xbcc6589b	-0.024212172
57	0xbdb2e387	-0.08734804
58	0xbbfaf00f	-0.0076580117
59	0xbe00895b	-0.12552397
60	0x3d94e66f	0.07270514
61	0xbdd43227	-0.10361128
62	0x3dc2f208	0.0951882
63	0xbd2cbad8	-0.042170376
